…
You should probably TRAIN this model on a down-stream task to be able to use it for predictions and inference.
experiment:
  name: deep_learning
  seed: 42
  device: cuda
model: null
dataset:
  name: Flowers102
  path: ob
  batch_size: 128
  val_batch_size: 512
  train_split: 0.8
training:
  epochs: 80
  learning_rate: 0.0001
  patience: 5
  early_stopping: true
optimizer:
  type: Adam
  weight_decay: 1.0e-06
lr_scheduler:
  factor: 0.1
  min_lr: 1.0e-05
logging:
  wandb:
    project: deep_learning
    enabled: true

ViTForImageClassification(
  (vit): ViTModel(
    (embeddings): ViTEmbeddings(
      (patch_embeddings): ViTPatchEmbeddings(
        (projection): Conv2d(3, 768, kernel_size=(16, 16), stride=(16, 16))
      )
      (dropout): Dropout(p=0.0, inplace=False)
    )
    (encoder): ViTEncoder(
      (layer): ModuleList(
        (0-11): 12 x ViTLayer(
          (attention): ViTAttention(
            (attention): ViTSelfAttention(
              (query): Linear(in_features=768, out_features=768, bias=True)
              (key): Linear(in_features=768, out_features=768, bias=True)
              (value): Linear(in_features=768, out_features=768, bias=True)
              (dropout): Dropout(p=0.0, inplace=False)
            )
            (output): ViTSelfOutput(
              (dense): Linear(in_features=768, out_features=768, bias=True)
              (dropout): Dropout(p=0.0, inplace=False)
            )
          )
          (intermediate): ViTIntermediate(
            (dense): Linear(in_features=768, out_features=3072, bias=True)
            (intermediate_act_fn): GELUActivation()
          )
          (output): ViTOutput(
            (dense): Linear(in_features=3072, out_features=768, bias=True)
            (dropout): Dropout(p=0.0, inplace=False)
          )
          (layernorm_before): LayerNorm((768,), eps=1e-12, elementwise_affine=True)
          (layernorm_after): LayerNorm((768,), eps=1e-12, elementwise_affine=True)
        )
      )
    )
    (layernorm): LayerNorm((768,), eps=1e-12, elementwise_affine=True)
  )
  (classifier): Linear(in_features=768, out_features=102, bias=True)
)
  0%|          | 0/13 [00:00<?, ?it/s]  8%|▊         | 1/13 [00:06<01:17,  6.49s/it] 15%|█▌        | 2/13 [00:15<01:26,  7.87s/it] 23%|██▎       | 3/13 [00:23<01:19,  7.94s/it] 31%|███       | 4/13 [00:30<01:08,  7.58s/it] 38%|███▊      | 5/13 [00:35<00:53,  6.63s/it] 46%|████▌     | 6/13 [00:40<00:43,  6.15s/it] 54%|█████▍    | 7/13 [00:45<0
…
