…
You should probably TRAIN this model on a down-stream task to be able to use it for predictions and inference.
experiment:
  name: deep_learning
  seed: 42
  device: cuda
model: null
dataset:
  name: Food101
  path: ob
  batch_size: 128
  val_batch_size: 512
  train_split: 0.8
training:
  epochs: 80
  learning_rate: 0.0001
  patience: 5
  early_stopping: true
optimizer:
  type: Adam
  weight_decay: 1.0e-06
lr_scheduler:
  factor: 0.1
  min_lr: 1.0e-05
logging:
  wandb:
    project: deep_learning
    enabled: true

ViTForImageClassification(
  (vit): ViTModel(
    (embeddings): ViTEmbeddings(
      (patch_embeddings): ViTPatchEmbeddings(
        (projection): Conv2d(3, 768, kernel_size=(16, 16), stride=(16, 16))
      )
      (dropout): Dropout(p=0.0, inplace=False)
    )
    (encoder): ViTEncoder(
      (layer): ModuleList(
        (0-11): 12 x ViTLayer(
          (attention): ViTAttention(
            (attention): ViTSelfAttention(
              (query): Linear(in_features=768, out_features=768, bias=True)
              (key): Linear(in_features=768, out_features=768, bias=True)
              (value): Linear(in_features=768, out_features=768, bias=True)
              (dropout): Dropout(p=0.0, inplace=False)
            )
            (output): ViTSelfOutput(
              (dense): Linear(in_features=768, out_features=768, bias=True)
              (dropout): Dropout(p=0.0, inplace=False)
            )
          )
          (intermediate): ViTIntermediate(
            (dense): Linear(in_features=768, out_features=3072, bias=True)
            (intermediate_act_fn): GELUActivation()
          )
          (output): ViTOutput(
            (dense): Linear(in_features=3072, out_features=768, bias=True)
            (dropout): Dropout(p=0.0, inplace=False)
          )
          (layernorm_before): LayerNorm((768,), eps=1e-12, elementwise_affine=True)
          (layernorm_after): LayerNorm((768,), eps=1e-12, elementwise_affine=True)
        )
      )
    )
    (layernorm): LayerNorm((768,), eps=1e-12, elementwise_affine=True)
  )
  (classifier): Linear(in_features=768, out_features=101, bias=True)
)
  0%|          | 0/296 [00:00<?, ?it/s]  0%|          | 1/296 [00:10<49:47, 10.13s/it]  1%|          | 2/296 [00:12<27:01,  5.52s/it]  1%|          | 3/296 [00:14<19:43,  4.04s/it]  1%|▏         | 4/296 [00:17<16:22,  3.36s/it]  2%|▏         | 5/296 [00:19<14:27,  2.98s/it]  2%|▏         | 6/296 [00:21<13:07,  2.71s/it]  2%|▏         | 7/296 
…
