…
You should probably TRAIN this model on a down-stream task to be able to use it for predictions and inference.
experiment:
  name: deep_learning
  seed: 42
  device: cuda
model: null
dataset:
  name: Food101
  path: ob
  batch_size: 128
  val_batch_size: 512
training:
  epochs: 80
  learning_rate: 0.0001
  patience: 3
  early_stopping: true
  num_epochs_mix: 1
optimizer:
  type: Adam
  weight_decay: 1.0e-06
lr_scheduler:
  factor: 0.1
  min_lr: 1.0e-05
logging:
  wandb:
    project: deep_learning
    enabled: true

ViTForImageClassification(
  (vit): ViTModel(
    (embeddings): ViTEmbeddings(
      (patch_embeddings): ViTPatchEmbeddings(
        (projection): Conv2d(3, 768, kernel_size=(16, 16), stride=(16, 16))
      )
      (dropout): Dropout(p=0.0, inplace=False)
    )
    (encoder): ViTEncoder(
      (layer): ModuleList(
        (0-11): 12 x ViTLayer(
          (attention): ViTAttention(
            (attention): ViTSelfAttention(
              (query): Linear(in_features=768, out_features=768, bias=True)
              (key): Linear(in_features=768, out_features=768, bias=True)
              (value): Linear(in_features=768, out_features=768, bias=True)
              (dropout): Dropout(p=0.0, inplace=False)
            )
            (output): ViTSelfOutput(
              (dense): Linear(in_features=768, out_features=768, bias=True)
              (dropout): Dropout(p=0.0, inplace=False)
            )
          )
          (intermediate): ViTIntermediate(
            (dense): Linear(in_features=768, out_features=3072, bias=True)
            (intermediate_act_fn): GELUActivation()
          )
          (output): ViTOutput(
            (dense): Linear(in_features=3072, out_features=768, bias=True)
            (dropout): Dropout(p=0.0, inplace=False)
          )
          (layernorm_before): LayerNorm((768,), eps=1e-12, elementwise_affine=True)
          (layernorm_after): LayerNorm((768,), eps=1e-12, elementwise_affine=True)
        )
      )
    )
    (layernorm): LayerNorm((768,), eps=1e-12, elementwise_affine=True)
  )
  (classifier): Linear(in_features=768, out_features=101, bias=True)
)
  0%|          | 0/25 [00:00<?, ?it/s]  4%|▍         | 1/25 [00:09<03:37,  9.08s/it]  8%|▊         | 2/25 [00:18<03:31,  9.20s/it] 12%|█▏        | 3/25 [00:27<03:26,  9.39s/it] 16%|█▌        | 4/25 [00:36<03:12,  9.17s/it] 20%|██        | 5/25 [00:45<03:01,  9.09s/it] 24%|██▍       | 6/25 [00:53<02:46,  8.75s/it] 28%|██▊       | 7/25 [01:03<0
…
